best_hydro_model.pth (torch, 842936 bytes, 10 tensors)

lstm.weight_ih_l0 f4 [512, 10]
00000000: 2236 97be c47c 14be 6d8b 71bd a4e1 54bd
00000010: 7b08 3dbd 8d93 513d 92ff adbb ac73 eb3d
00000020: 88bc b03c 0839 07be 3f87 8e3d 67db 0dbd
00000030: 524e e43d bb76 d63d 41b6 c33c 2eaa 143e
00000040: ba78 7abc fcc3 133d 78c7 40bc ec1d b4bc
00000050: dccb fcbd af89 203d 5301 debc 45a2 cd3c
00000060: 775c 323d 79e6 9c3d ce52 fa3b 931a 043e
00000070: f299 443c 0107 f23d daaf 363d 2252 e03d
00000080: 91a5 3e3e 39a8 153e 35e7 233d d21f 9cbc
00000090: 67c9 eabd 6b45 81bd 559a 03be d57d cdbd
000000a0: 5207 c0be 1456 6d3c 0579 043e 7da8 923c
000000b0: 3f5d 42be 538b 3b3e 8366 4fbe b4b2 983c
000000c0: 6e89 14be 3c4d 3fbe f28f 3c3e c97a a7bd
000000d0: b95c 58be 28ff 18be 872e af3d 9dac c4bd
000000e0: 311a 423d 0e29 5dbb 8e8d 96bd 85e2 83bd
000000f0: 0a9a 0bbe 278d eb3d b28c 15be 3e04 303c
00000100: 722e 283e 7451 db3d cd39 293e 68c7 313c
00000110: 9c00 053e 4cd4 eabc b876 b0be 3f99 e53d
00000120: df95 073e 61b9 c73d d8b4 ea3d d541 0b3d
00000130: 6c00 6c3c 0702 003d ee03 9b3d e152 58bd
00000140: 9df0 ff3d a174 4c3e e64a bcbb 823d 843d
00000150: 5808 303e b8f4 713d 90ef 343e 4a35 a53c
00000160: c539 e23d 4c6f 12bd dc9c 0a3e 3f48 19bd
00000170: b0a8 ec3d 658c 3c3c 05d4 2b3e 89f7 843c
00000180: d688 113e d9f8 313d 142f 2d3d 4b5c 78bd
00000190: 96b1 353d 3190 643e 5ec9 b63d cec1 083d
000001a0: 4e20 b23d 2c9b 1a3e 0612 123e e7d4 b23d
000001b0: f18d 913d b598 07bd dda8 cebd df9d 48bc
000001c0: 999b 24be b70f 6ebe df56 193e a805 6bbc
000001d0: b10e 083e 60fb ca3d 49b5 923d de4e a6bd
000001e0: 558b 42be d4ac 3abd bb5e 1dbe f1d7 5cbe
000001f0: bedf 503b 3ce1 4c3c 4b11 f53d 5497 053d
00000200: 3e83 8b3d f0a9 6bbe 84de debd aa74 c0bd
00000210: ac3a 0fbc 41b6 063d 3975 85bd 2393 af3c
00000220: 97ef dbbb 824d 273c 3130 b6bd 8aad 993d
00000230: 7252 ad3d 2cd0 0a3e 8105 cdbd ddd7 013d
00000240: fbc4 e43d 2c01 b03c 6a7f c5bc cced 99bc
00000250: c439 e33b acaa 32bd 8428 2c3e f408 413d
00000260: 51c4 313e d0e6 843e 49f0 9f3d 9687 1f3d
00000270: 7e12 a93d a3a7 493e cb27 b9bc 2cb1 573e
00000280: 9314 153e a11f de3e 0fa1 e53e 91a9 fa3e
00000290: 06e9 bd3d c121 a2be b011 20be 0948 2e3d
000002a0: 186d 14be 4905 f03b 9ef9 32be b8f1 123f
000002b0: e92c 453e 1165 333e 025f bd3d 19a5 f03d
000002c0: 8978 623d 5da2 65bd df5d d9bc 53a3 dfbc
000002d0: dff5 bd3d 6da0 823e 8494 cf3d 1095 d63e
000002e0: b35d 453d f4e8 bf3d 3d98 4a3d 21af 713d
000002f0: bef0 863d ffe2 283d 314c 21be 977e c63e
00000300: d29b 44be 9a3e 203d 243d f93d 86e7 cb3d
00000310: fd46 043e d085 1c3e 45ff 673d 7f66 b3bd
00000320: 7be8 ea3e 0357 db3c d33a 343f 4a92 243f
00000330: 6853 4b3d 82d8 7a3e 16ca 2dbe 73b8 de3d
00000340: 9bc4 cebd 7999 acbd bbc8 1e3e 9255 943e
00000350: a6ac 913d 4922 f53d 1e30 9a3d 040f 8a3d
00000360: 9c4b cfbd 3330 80bc 2134 ff3c f861 853d
00000370: 8423 f63d becc 383e bcb2 33be c924 4d3e
00000380: 30df b73e fd81 9b3d 2332 593e daeb 4a3e
00000390: ada4 4e3d 35c7 123e 5144 c8bd 781d a13d
000003a0: 0c1b 7bbd 5da9 d53d c75b d33d a4ed 763d
000003b0: 0328 403e 5ac6 bd3d a49c e83d 0924 713c
000003c0: e762 8c3e 4b9e 283e cb66 9c3e 1445 a13e
000003d0: 6ca1 e8bb ef61 ee3d a20b 0dbb b9fa 573e
000003e0: 3df6 eeb9 6a2e 563d d461 903e d158 b73d
000003f0: 4020 773e 42d8 223e 8ace 13bd 352b 073d
-0.29533488 -0.1450072 -0.058970857 -0.051973 -0.046150666 0.051166106 -0.0053100074 0.11496672
0.021574274 -0.1320535 0.0695939 -0.034633067 0.11147751 0.10471865 0.023890616 0.14518043
-0.0152875725 0.036075577 -0.011766307 -0.021986924 -0.123435706 0.039193805 -0.02710024 0.02510179
0.043545213 0.07661147 0.0076392656 0.12900762 0.011999594 0.11817742 0.0446013 0.109531656
0.18617846 0.14614953 0.040015418 -0.019058142 -0.11464196 -0.063120686 -0.12851842 -0.10033766
-0.37505585 0.014485855 0.1293679 0.017902607 -0.18980883 0.18314867 -0.20253949 0.0186399
-0.1450555 -0.18681806 0.18414286 -0.08177716 -0.21129121 -0.14941084 0.08553796 -0.09603236
0.04738826 -0.0033746394 -0.07351218 -0.064396895 -0.1363298 0.11501532 -0.14604452 0.010743199
0.16423967 0.10708895 0.16525955 0.010850765 0.12988514 -0.028665684 -0.34465575 0.1121087
0.13240765 0.09752155 0.114602745 0.03399833 0.014404397 0.031251933 0.07569109 -0.052813414
0.12497065 0.19966365 -0.0057462333 0.06457044 0.17190683 0.059071273 0.17669511 0.020167012
0.11046175 -0.035750672 0.135364 -0.037422415 0.11555612 0.011508082 0.16780098 0.016231315
0.14212355 0.04345021 0.042281225 -0.060634892 0.044358812 0.2232063 0.089251265 0.03338795
0.08697568 0.15098256 0.14264688 0.08732014 0.07107151 -0.033104617 -0.10090802 -0.012244671
-0.16074981 -0.23248182 0.14974545 -0.01434461 0.13286854 0.09911227 0.07163484 -0.081205115
-0.18998463 -0.045574978 -0.15368168 -0.2156675 0.0031871642 0.012504872 0.11966189 0.03261502
0.06812142 -0.23014045 -0.10882285 -0.09397252 -0.008742016 0.032888655 -0.06516499 0.021432465
-0.006711911 0.01021135 -0.088959105 0.07503803 0.08462991 0.13555974 -0.100108154 0.031700004
0.111703835 0.021484934 -0.024108607 -0.018790148 0.0069343764 -0.043619797 0.1681233 0.04712768
0.17360045 0.25957346 0.07809503 0.038947664 0.0825548 0.19692855 -0.022601983 0.2106368
0.1455863 0.43383506 0.4484944 0.48957494 0.09272961 -0.31666377 -0.15631747 0.042549167
-0.14494741 0.007324849 -0.17478034 0.57400084 0.19255413 0.17519023 0.09246637 0.1175024
0.055290733 -0.056063045 -0.026534019 -0.027299559 0.09275412 0.2551302 0.10135749 0.419106
0.04818506 0.09370604 0.049461592 0.059004907 0.06588887 0.041232105 -0.15751721 0.38768455
-0.19200066 0.0391222 0.12169865 0.09956269 0.12917705 0.1528542 0.05663993 -0.08759784
0.45880494 0.026774889 0.7040226 0.6428572 0.04964009 0.24496654 -0.16971621 0.10875025
-0.10096093 -0.0842771 0.1550626 0.28971535 0.07113008 0.1196943 0.07528709 0.06741145
-0.10121843 -0.015647983 0.031152787 0.06512827 0.12018493 0.18046853 -0.1754865 0.20033564
0.35912466 0.07593153 0.21210532 0.19816533 0.050450016 0.14333804 -0.09778655 0.07866949
-0.06130509 0.10432694 0.103202395 0.060285226 0.18765263 0.09266348 0.11358002 0.014718064
0.27419207 0.16466634 0.30547175 0.31498015 -0.007099321 0.11639773 -0.0021521826 0.21091737
-0.0004557836 0.052290358 0.28199637 0.08952487 0.24133396 0.15902808 -0.036085643 0.03300019

lstm.weight_hh_l0 f4 [512, 128]
00000000: 970c 31bc f437 953d e09d 2ebd 6116 2dbc
00000010: 9b6b 953d 7b0c 9ebd 08ac dd3b 3ef0 a6bd
00000020: 8de9 813d 88f8 61bd 3239 b53c 6d3f ec3d
00000030: b58a 8b3d d207 cebd 252a bd3d 9b2c e43d
00000040: 062b 863c 1d86 083d 8c48 ebbd 5912 1abc
00000050: 45df 253d 0d70 2e3e 9cdc 9a3d 46be d33b
00000060: e549 9f3c 344c 013d 5e5e 26bd 2605 6c3c
00000070: 170b 6cbc ee6b da3d 02c9 5f3d 7788 40bd
00000080: f3e9 f7bc 0eda ca3d 0f44 fbbd b041 d8bc
00000090: 0954 603d 0acb 4ebd 0e7d 633d b2cc 18bd
000000a0: 0883 c6bd 519f afbc 21d1 f4bc 1d82 973d
000000b0: a73e 9fbd 8dc9 173c 140c 1ebe 0b1d ee3d
000000c0: 521a fe3c 52f2 68bd 695a 573d c2d6 3dbd
000000d0: c2fe 7c3d a9b6 623d 3bc1 edbd 8dfb b43d
000000e0: e9e1 1ebe 655e c8bb 182a 13bd 3db4 413e
000000f0: c4e7 8f3d b4a3 89bd 16a0 31bd 9956 64bd
00000100: f267 acbd 890f 06bd 5221 39be 673b 59bc
00000110: d5d5 a93d 7fd9 35bd c615 04be 99c7 64bd
00000120: 7516 02bd 8951 eb3c 6450 603e ae7d cabb
00000130: c090 ea3c ec89 be3d 90e2 02bd e5fc 44be
00000140: 6637 513e 52de 9e3c 6bef df3d ac88 0c3d
00000150: b22f 1e3e d010 f1bc 27b0 393c baa8 bd3d
00000160: 27fd 32bd 557e a5bd 1c44 733d 851e 6f3e
00000170: 7a7a aabd b099 aa3d e493 18bd 8912 ef3c
00000180: 374f eabd bb9f 1bbd a66a d7bd a772 083e
00000190: 8a39 d13c bb39 0abe fdea d63d c16c e3bc
000001a0: b441 c3bd 6701 bfbc d228 aa3c c18e 0d3c
000001b0: 1fb5 20bc fa8e dbbc d4db 903c c40b 8d3d
000001c0: abb0 ecbd f1ba 56bd ade9 033d b37d 133d
000001d0: 12dd b6bd 7532 2d3e 7dc7 09be 3169 e33d
000001e0: b1e0 8d3d a3bf b2bd dd41 053d 336f 46bc
000001f0: db1a 9dbd 0063 28be 04c8 69bd c596 acbd
00000200: aa95 81bd ca51 98bc 9928 a13c b355 a5bd
00000210: 5005 873d f023 b5bc 7c71 b53d 1b1d d4bd
00000220: 006d 1bbe cd6d ee3d ee2b 9a3d dad0 013e
00000230: 7e0e 4a3d 94b3 0a3e dea3 943b 2744 d03d
00000240: 5c72 253e 344a 223e cad8 e03b 366d 92be
00000250: 016a debc 557f 5bbd 5603 263e 4e49 9dbd
00000260: 8642 0bbd 3b08 e9bc c8f1 183b db22 aebd
00000270: 3036 fc3c b4a4 243e ace7 3fbe a9a4 c83d
00000280: 360d 85be f9b0 f53b 7023 2d3c e223 c93d
00000290: 352d a63d 8e8a 41bc ccdd b3bc 60fc 43bd
000002a0: 5fe8 423e bf62 46bd 766e 3cbd a3fe ee3c
000002b0: ee7c c53d ddd0 23bd 48d2 17bd e84c a33e
000002c0: 4171 81bd 989a a83d 89c9 5dbd 297c a7bd
000002d0: 934b a73c 3a09 5a3b 2a44 92be 0f41 a2bd
000002e0: bc3d 3f3e c0f4 d63d 54da f33d 5459 56bd
000002f0: ea96 18bb 6235 83bd a7ea d8bd 76cb ca3d
00000300: 7241 a8bd b88f 6fbb 2874 39be 3d15 913e
00000310: de6c 98bc 7e74 053c f705 0d3e ad9e aabd
00000320: 628b 683d a1a2 d63d 1f71 723e 9d00 b8bd
00000330: 08d0 37bd 101e af3d 3a18 023e 9cad a1be
00000340: 1c07 c93d 0800 17be 206e 32bd accc d83a
00000350: 040f 343e e513 e33c 4b1e 5b3e 8bb9 d3bd
00000360: 475a 7dbd 4011 1e3e b795 d6bd d32e 323e
00000370: 2cc8 a53d afda 19be 3834 933c 0656 2a3c
00000380: 4091 2bbd e7db 1cbd df51 c63d d033 a1bd
00000390: 92c3 94be 7928 2bbd de12 e03d f243 5d3e
000003a0: 8116 5dbd 9bad c73c ee91 18bd 01ee 743d
000003b0: 088a 783d ad1d 13bd 76aa eebb 53ac ed3c
000003c0: f05f 603c c043 1e3d 2a5d c33d 75c0 813d
000003d0: 5e40 7ebd 33f0 4d3d 705a 6b3d b0fc ccbd
000003e0: 3842 b2bd 2a46 a93d b11b 8a3c ed17 05be
000003f0: 15cf 98bd 4481 94bc 6de8 0d3e 1eb7 4fbb
-0.010806224 0.07286063 -0.04263103 -0.010564418 0.07295915 -0.07717224 0.0067648925 -0.08151291
0.063433744 -0.05516866 0.022122 0.11535535 0.06813566 -0.10060085 0.09236554 0.1114132
0.016377937 0.033331025 -0.114884466 -0.0094037885 0.04049613 0.17034931 0.07561609 0.0064618913
0.019444415 0.031566814 -0.04061734 0.014405524 -0.014406941 0.10665117 0.054635055 -0.047005143
-0.030262923 0.09904872 -0.122688405 -0.02639851 0.054767642 -0.050486602 0.055539183 -0.037304588
-0.09692961 -0.021438273 -0.029884877 0.07397864 -0.07775622 0.009264362 -0.15434295 0.11626633
0.03101841 -0.05687172 0.052576456 -0.046347387 0.061766393 0.05534998 -0.116091214 0.08837042
-0.15515865 -0.0061147683 -0.035928816 0.18916412 0.07026628 -0.06720677 -0.04336556 -0.05574665
-0.084182635 -0.03272966 -0.18079117 -0.0132587915 0.08292738 -0.044396874 -0.12898931 -0.055854414
-0.031759698 0.028725402 0.21905667 -0.006179533 0.028633475 0.0930365 -0.031954348 -0.19237097
0.20431289 0.01939312 0.10934337 0.034310028 0.15447882 -0.029426962 0.011333502 0.09260698
-0.043698456 -0.080807365 0.059391126 0.23351486 -0.08324142 0.08330095 -0.037250414 0.029183643
-0.1144089 -0.037994128 -0.105183885 0.13324986 0.025540132 -0.13498585 0.10494039 -0.027761819
-0.09534016 -0.023316098 0.020771418 0.008639992 -0.009808808 -0.026801575 0.017682947 0.0688701
-0.11557134 -0.052424375 0.032205272 0.036008548 -0.089288846 0.16913779 -0.13455005 0.11104048
0.06927622 -0.08727958 0.032533515 -0.012111473 -0.07671138 -0.16444016 -0.057075515 -0.084271945
-0.06327374 -0.018593688 0.019672679 -0.080729865 0.0659281 -0.022111863 0.08859536 -0.10357114
-0.15178299 0.116420366 0.0752791 0.12677327 0.049330227 0.13545066 0.004536136 0.10169249
0.16156906 0.15848619 0.006861781 -0.28598946 -0.027150156 -0.05358823 0.1621221 -0.076799974
-0.03399899 -0.028446307 0.0023337472 -0.08502742 0.030787557 0.16078454 -0.1874072 0.097970314
-0.25986642 0.0074979034 0.010567531 0.09821297 0.08114091 -0.011812819 -0.021956347 -0.047848105
0.19033955 -0.048434015 -0.04600378 0.029174155 0.09642969 -0.03999411 -0.037065774 0.31894612
-0.063204296 0.082326114 -0.054147277 -0.081779785 0.020421779 0.003326966 -0.2856763 -0.07922565
0.18675894 0.10495901 0.11906877 -0.052331284 -0.0023283311 -0.06406666 -0.105916314 0.09902088
-0.08215608 -0.003655417 -0.18110716 0.28336516 -0.0186066 0.00814545 0.13771807 -0.08331046
0.05677355 0.10480238 0.23675965 -0.08984492 -0.04487613 0.08550656 0.12704554 -0.31577766
0.09815809 -0.14746106 -0.043562055 0.0016540489 0.17583853 0.027719447 0.21398275 -0.10338124
-0.061853673 0.15436268 -0.104777746 0.17400675 0.080948204 -0.15024827 0.017969236 0.010396486
-0.041886568 -0.038295653 0.096835844 -0.078712106 -0.29055458 -0.041786645 0.10941099 0.2160795
-0.05397654 0.024374774 -0.037248544 0.05979729 0.06067851 -0.035916973 -0.007283504 0.029012835
0.013694748 0.03863883 0.09539254 0.063355364 -0.062073104 0.0502779 0.057459295 -0.10009134
-0.087040365 0.08265336 0.016858907 -0.12997408 -0.07461373 -0.018128045 0.13858195 -0.003169484

lstm.bias_ih_l0 f4 [512]
00000000: 1d8d 32bd a1f3 0f3d 988a 75bc 3c60 8abb
00000010: d877 8abe 3f34 75bd 9b7c 163c d5e7 81bb
00000020: d9b6 7f3b 1901 6bbd 2217 65bc c2bf 13bd
00000030: f012 7bbd ab8f 05bd 2995 85bd c98e 003d
00000040: f116 d23a e6b2 81bd b859 dbbd 8e25 a63c
00000050: 9726 3abd e36e 81bd 0bac 323e 378f eabc
00000060: 6278 29bd ff1f 14be e25d ae3d a7d1 86bd
00000070: a4e8 dbbd 5552 b9bd 0d22 eabd 23b3 e23d
00000080: eecd 25bb c8e8 ff3d 33bb 88bd 4127 033d
00000090: cbc8 fa3c ae63 7abd b499 3bbc b923 f23b
000000a0: 097d 1e3d e0b0 0dbe a71a ac3c ef44 d8bd
000000b0: e437 373e 82c5 b5bd faf6 2ebc 2f59 32bd
000000c0: a5c6 b33d 296a db3c bde1 34ba 5bfe 983c
000000d0: 2973 5ebd bec7 25be 8313 22be eb91 22bd
000000e0: c871 95bb 19de 033d 7182 e23b ef79 f53c
000000f0: 031a cabd 8878 a73c 63aa 95bc bd3a 27be
00000100: ab04 17be 9dbe 06be c3eb e63d 6dfa 623e
00000110: a67e 89bd f2b8 b2bb b768 6a3d 149a 33be
00000120: e9eb 81be d9b1 3bbd c712 00be 9a8e 58bd
00000130: 8400 be3d 1145 d2bd c439 d5bd 016f 97bd
00000140: bb4b 85bd fea7 f1bd 817d c6bc 7ffb 643c
00000150: 50ea 92bd 476e 9ebd ef66 0dbd 6796 803d
00000160: a43b 97bd 3174 413c 142b d8bb 425a 1f3e
00000170: a075 45bc fdad b0bd dc79 fbbc 4b0f 483d
00000180: 1487 bf3d 0c63 45bd bd53 e23b 1393 d5bd
00000190: a941 98bd 45f9 883c 139e b03c 2443 c83d
000001a0: 26ee 2fbe 347a 8dbc 9511 0d3d a9f3 19bd
000001b0: 0bf0 27be 9036 f1bd 7430 ba3d 6d67 f2bd
000001c0: 9caf b7bd 9319 e5bd d91e 27be e0aa 333d
000001d0: 5c95 cebd a06c 6dbd d37b 4b3d 0406 95bd
000001e0: 56d8 a7bd 4ad7 12be 2d35 963d 260f 98bd
000001f0: a67f a9bd 0b0a 7f3d 5c88 22be fa29 f4bd
00000200: 0017 60be ebab d4bc b2a3 5bbe 0e90 3cbe
00000210: b5bb 6dbd 83e7 0ebe ee24 88be f416 87bd
00000220: 67ac 7fbe 882c 69be f205 3dbe a93e 43be
00000230: 7476 2bbd 2317 3abe 0e1d 7dbc d209 31be
00000240: 6624 13bd dfbd 2cbd 0390 07be 9be2 84be
00000250: 652c 77bd 8492 f7bd aef0 90be 7d89 d5bc
00000260: 6f95 9fbd 51d6 46be 0c58 f6bb 3eea 79bd
00000270: 6a18 b2bd 1d37 82be b100 c5bd 19d3 3e3d
00000280: ef67 15bd de32 f2bd 72b7 16be 8290 3f3d
00000290: e290 96bd 3856 633c 2308 523d 2d11 febc
000002a0: 4758 a8bd c317 80bd c442 c43c 0b95 b9bc
000002b0: 147b 59be 0af8 aabb 3612 95be 7a5a 1c3e
000002c0: 7e4a 40be 9e15 8fbe f87a 03be a6d8 febd
000002d0: f1c9 613d c0e3 75be c2f1 1dbe d3f4 a0be
000002e0: 950c e23d e50d 38be c54a 99bc 7f9a 90bd
000002f0: 807e 78bd 5f14 d1bd 3646 67bd 1e0c 84bd
00000300: bb4d fdbd 5167 f7bd 97cf 693e b3b7 253e
00000310: d9a5 26be 4f6e 17bd 11d3 69be 98bd 15bd
00000320: e2b2 72be c2d0 f6bd 5a43 8cbd 9734 82be
00000330: 65b5 69be 5aba d93b 68e9 02be 2295 9c3d
00000340: 801f 35be 79ac e1bd 2f14 4ebc fa59 76be
00000350: f96c 08be eaf4 5cbe 65b8 413c c8df 01be
00000360: 4709 b4bd 4d2e 21be c1c5 3abe 6d08 77bd
00000370: 6610 81be 6d71 47be 7c26 48be d560 06be
00000380: 4a71 59be f472 8cbd fa25 45be 52dc dcbd
00000390: bd86 013e 668a d9bd 4001 b5bd d4db 84be
000003a0: a8fe 16be 28d4 dcbc 0c8f 8ebd 1810 47be
000003b0: efe0 c1bc 326b aebd 61b1 3cbd b657 e0bd
000003c0: 0505 2dbe 6a8d c4bd b27c 073c b04f fcbd
000003d0: 07f7 e2bd d75a 95bd e3b3 47be 0472 4fbd
000003e0: 785d 69be 1c4c 42be 0157 1dbe 0565 3cbe
000003f0: e00b 4abe c6e4 503c 7138 40bd a5c9 41be
-0.043591607 0.035144452 -0.014986657 -0.004222898 -0.2704456 -0.05986428 0.009184982 -0.003964404
0.0039018898 -0.057374094 -0.013982566 -0.036071546 -0.061297357 -0.032607716 -0.06522591 0.03138617
0.0016028566 -0.0633295 -0.10710472 0.02028158 -0.04544696 -0.06319978 0.17448442 -0.028632743
-0.04137457 -0.1446533 0.085140005 -0.06582957 -0.10737732 -0.09048907 -0.11432276 0.11069324
-0.0025299746 0.124955714 -0.066763304 0.032019857 0.030613324 -0.06113022 -0.01145022 0.0073895124
0.03869346 -0.13837004 0.021008803 -0.10560023 0.17892414 -0.08875562 -0.010679001 -0.043542083
0.08778123 0.02678402 -0.00069000927 0.018675974 -0.054309044 -0.16189477 -0.15827756 -0.03968994
-0.004560683 0.03219423 0.0069125225 0.029965369 -0.098682426 0.020443216 -0.018269723 -0.16331
-0.14747874 -0.1315865 0.11275437 0.22165842 -0.067136094 -0.005454176 0.05722877 -0.17539245
-0.25375298 -0.045823906 -0.12507163 -0.05287037 0.09277442 -0.102670796 -0.104114085 -0.07394219
-0.06508585 -0.1179962 -0.024229767 0.013975977 -0.07173598 -0.077358775 -0.034521993 0.06278687
-0.073844224 0.011807487 -0.006596932 0.15561774 -0.01205197 -0.08626936 -0.030697756 0.04884271
0.09351936 -0.04819016 0.006906955 -0.10428443 -0.07434399 0.016720423 0.02155975 0.09778431
-0.1718069 -0.017270185 0.034440596 -0.037585888 -0.16400163 -0.11777985 0.09091273 -0.11836133
-0.08969042 -0.111865185 -0.16320361 0.04386413 -0.10087082 -0.05796492 0.049678635 -0.07276538
-0.0819556 -0.14339939 0.07334361 -0.07424764 -0.082763 0.062265437 -0.1587233 -0.11922069
-0.21883774 -0.025960883 -0.21449164 -0.18414328 -0.05804034 -0.13955502 -0.26590675 -0.06596175
-0.2496811 -0.22770894 -0.18459299 -0.19066872 -0.041861013 -0.18172888 -0.015448822 -0.17288902
-0.035923384 -0.042173263 -0.1323853 -0.25954136 -0.060345072 -0.120884925 -0.28308624 -0.026066536
-0.07792174 -0.19417693 -0.00751782 -0.061014406 -0.08696063 -0.25432673 -0.096192725 0.046588037
-0.036476072 -0.118261084 -0.14718416 0.046768673 -0.07351853 0.013875537 0.05127729 -0.03101405
-0.082199626 -0.06254532 0.023957618 -0.022654077 -0.21238357 -0.005217557 -0.29115456 0.15268889
-0.18778417 -0.2794618 -0.12839878 -0.12443666 0.055124227 -0.24012661 -0.15424255 -0.31436786
0.11037556 -0.1797405 -0.01871241 -0.07060718 -0.060667515 -0.102089636 -0.056463443 -0.06447624
-0.123683415 -0.12080253 0.22833095 0.16183357 -0.16274203 -0.036970433 -0.22834422 -0.036557764
-0.23701051 -0.12051536 -0.06848784 -0.25430748 -0.22823103 0.0066445293 -0.1278435 0.07645632
-0.17687798 -0.11019225 -0.012578054 -0.24057761 -0.1332282 -0.21577802 0.011823748 -0.12683022
-0.08790832 -0.15740319 -0.182395 -0.06031077 -0.25207824 -0.19476862 -0.1954593 -0.13122876
-0.21234623 -0.06857863 -0.19252768 -0.1078421 0.12649055 -0.106221005 -0.08838129 -0.25948966
-0.14745581 -0.026956633 -0.06960878 -0.19439733 -0.023666827 -0.0851654 -0.0460676 -0.109542295
-0.16896446 -0.09597285 0.008269476 -0.12319887 -0.11082273 -0.07292717 -0.19502215 -0.050645843
-0.22789562 -0.18974346 -0.1536522 -0.18397911 -0.19731092 0.012749856 -0.046928827 -0.18924578

lstm.bias_hh_l0 f4 [512]
00000000: 2cfd 13be 788e d3bd 2d3e ffbd c9a8 6ebd
00000010: 09ad 80be 94d9 a63d 8f4c 2cbd 537d 803d
00000020: 67eb 8b3d d94f 8b3c b074 883d 63a3 a6bd
00000030: f7b9 23be 7c13 a63c 5a3e 563c 6ce3 b53c
00000040: 9635 463d d3a5 413d 7b1f 483d d65c 05b9
00000050: fba5 0abe 17d6 ccbd 28f4 a23d e86b c9bd
00000060: 1875 1dbd bb64 0bbe a2f1 cb3d 06f4 1fbe
00000070: 8703 0cbd 73b6 bcbd 22d9 c3bc 536a c13b
00000080: 4b08 a4bc 1b05 8a3e c40a 92bb a570 8c3b
00000090: 29ae 7e3d cea5 3f3c 2e7c 483c 45e5 093c
000000a0: 9b52 91bd e99c 44bd 2517 98bc 958a a9bd
000000b0: 523b 4f3e 56f8 23bc 9470 f6bb 65dc c63d
000000c0: 1dba 52bb fece d9bd 0441 723d ee46 2cbd
000000d0: 22b3 41be d0b5 59be f8ff 3bbd c317 92bd
000000e0: 2e67 93bd c895 c8bd 9508 7dbc 46f7 143d
000000f0: 70c0 72be fc2d a63b cd1c edbc a4c9 c4bd
00000100: 7b7c 29be 5364 dbbd 535c f83d 2da6 613e
00000110: fea0 54bd 27b3 d7bd 85ad 83bc 4c30 1abe
00000120: 9338 83be 918c 6f3d 5977 a1bd 8eb4 69bd
00000130: 600a 853d 1419 d13a c8bd 8bbd fb14 89bc
00000140: f181 2a3d 97ed 2abe 36f7 763c 3ae8 19bd
00000150: f63e d2bc 3d80 49bd 63b8 57bd 2d78 073e
00000160: 7db1 1f3c bf9e 0abd c797 cabc de71 243e
00000170: d641 8d3c 0516 acbd 26c9 0bbe 910e 10bd
00000180: 759f 2fbd 5076 30bd 8f03 023d 2cd7 7d3b
00000190: db5a 62bd cbb0 983d 36ae 493b e4bb ea3d
000001a0: 57ce 9cbe 6680 86bd 225b 67bd 674a 613d
000001b0: 2da5 15bd cb5e 46be 3ae9 fe3d d816 43be
000001c0: 85a5 0dbd c957 01bd b82b bcbd acac 973a
000001d0: a545 76bb f976 19bd 6d81 a83d 3499 2cbb
000001e0: 7225 f0bd 7252 00be 1e48 763d 0511 1fbe
000001f0: 73b5 10bd d135 263d 78b8 01be 3cb9 2ebd
00000200: 202b 59be 2023 93bd d0b9 21be 5e4f 86be
00000210: 8d8b 15bd ed60 bebc 90cb 7fbe 0cf3 b2bd
00000220: aaca 28be da82 afbd 283b bcbd 1d52 39be
00000230: 73d1 893c 8e1a 8ebe 0841 48bd 2a84 55be
00000240: c752 863b 3a54 e5bd 3ea9 c2bd d231 4abe
00000250: 17f9 16be 9c4d e4bd 98e3 58be a079 80bd
00000260: e24d 2cbe 7d9c 1dbe 6dee 73bd a702 f6bc
00000270: 2739 3dbe 41ef 5ebe fa14 3dbe 359c 3d3d
00000280: eb89 10bd df80 11be 64ed 01be f4a1 a8bd
00000290: b95f 05bc ae10 fa3b 8783 d0bd 971b 09be
000002a0: 4159 37be e67d d2bc 5280 27bd f858 7bbc
000002b0: 7308 b8bd 1f55 193c 89dd 8cbe 3b38 2e3d
000002c0: 005a 84be 09eb 64be 1421 1cbe b45d adbd
000002d0: e484 e33b 0654 86be 4d5d fabd 9723 84be
000002e0: bf0c 713c b945 f6bd 5982 97bc 8565 d0bc
000002f0: ab4d 25bc dba6 25be 5f4e 80bd ea9c 9fbd
00000300: d85d 62bd 551b bebd 91b0 223e d195 9a3e
00000310: 0f5e 7ebe efee 3fbd 1949 7abe 3f7d 77bd
00000320: 8568 94bd b9c8 7abe 736e 62bd 4bcf 8fbe
00000330: 63e2 68be bbf8 16bd 5c74 33be 65ec 3f3d
00000340: 7389 a4bd 991c 3abe 6f27 403c 36b8 24be
00000350: 6df0 52be 1a6a 44be 7ebb d8bd ad6d f4bd
00000360: 91de c9bd 00b6 c7bd 81ec 45bd f765 cfbc
00000370: 6c6e 74be 3f24 67be 90ca 29be 232c 62be
00000380: 60c1 84be a83f a0bd d8a2 0cbe effd 50be
00000390: b278 a33d 6c3d eebd f6a0 2fbe 81b8 73be
000003a0: 7b1a 1abd 7064 f5bd 1cb0 85bd d669 33be
000003b0: 6d23 2fbe 8a68 863c 6083 14be ac27 08be
000003c0: af2d 8abe 8f8c 1fbe 1a80 833c 45ea dbbd
000003d0: 949b 32b9 6b20 74bd 5d2c 6cbe 2177 2ebe
000003e0: 62d2 60be a9db 01be 730d 44be 252e 15bd
000003f0: fa90 3dbe 1c34 333c bb72 adbd 5d77 39be
-0.14452046 -0.10329908 -0.12463031 -0.058266435 -0.25132015 0.081469685 -0.0420652 0.06273904
0.06832009 0.017005848 0.066628814 -0.08136632 -0.15988909 0.020272963 0.013076389 0.02220317
0.048390947 0.047277283 0.048858147 -0.00012718452 -0.13539879 -0.10001772 0.07956725 -0.098350346
-0.038441747 -0.13612644 0.09958197 -0.15620431 -0.03418305 -0.09214487 -0.023907248 0.0059025674
-0.020023486 0.2695702 -0.00445685 0.004285889 0.06217781 0.011697246 0.012236638 0.0084164785
-0.07095834 -0.048001204 -0.018565724 -0.082783855 0.20237473 -0.010007938 -0.0075207446 0.09710006
-0.003215439 -0.10635184 0.059144035 -0.04205983 -0.1891599 -0.21260762 -0.045898408 -0.071334384
-0.07197414 -0.097941935 -0.015443941 0.03636863 -0.23706222 0.0050713997 -0.028944397 -0.096087724
-0.16551392 -0.10712495 0.121269844 0.22036047 -0.051911347 -0.105322175 -0.016073951 -0.15057486
-0.256291 0.058483664 -0.07884092 -0.057056956 0.064961195 0.0015952908 -0.06823307 -0.016733637
0.041627828 -0.16692196 0.015073588 -0.037574984 -0.025664788 -0.049194563 -0.05266608 0.13229437
0.009746906 -0.0338428 -0.024730576 0.16059062 0.017243307 -0.084026374 -0.13650951 -0.03517014
-0.04287668 -0.04308158 0.031741675 0.0038732989 -0.055262428 0.074555956 0.0030774004 0.114616185
-0.30626175 -0.06567459 -0.056483395 0.055002596 -0.036534477 -0.19372098 0.12446828 -0.19051683
-0.03458168 -0.03157786 -0.09188026 0.0011571846 -0.0037578132 -0.037466977 0.08227811 -0.0026336433
-0.11725892 -0.1253145 0.06012737 -0.15533836 -0.035329293 0.040578667 -0.12668025 -0.042657122
-0.21207857 -0.07184434 -0.15793538 -0.26232427 -0.03651004 -0.023239577 -0.24979997 -0.08737764
-0.1648356 -0.0856988 -0.09190971 -0.1809773 0.016823506 -0.27754635 -0.048890144 -0.20851198
0.0040992233 -0.111977056 -0.09504937 -0.19745567 -0.14743458 -0.11147615 -0.2118057 -0.06273198
-0.16826585 -0.15391727 -0.059553552 -0.030030562 -0.18478833 -0.21770956 -0.18465033 0.04629155
-0.03528778 -0.14209317 -0.12688214 -0.08234015 -0.008140498 0.007631383 -0.10181337 -0.13389431
-0.17905141 -0.025694799 -0.04089386 -0.015341036 -0.089859866 0.009358673 -0.27512768 0.042534094
-0.25849915 -0.22355284 -0.15246993 -0.08465138 0.006943332 -0.2623598 -0.12224827 -0.25808403
0.014712512 -0.12025017 -0.018494772 -0.025439033 -0.010089318 -0.16176932 -0.06264948 -0.07793601
-0.055265278 -0.09282557 0.15887667 0.30192426 -0.24840568 -0.046858724 -0.24441947 -0.06042218
-0.07246498 -0.24490632 -0.055281114 -0.2808784 -0.2274261 -0.0368583 -0.17524856 0.046856303
-0.08034029 -0.18174972 0.011728152 -0.16085896 -0.20599528 -0.191811 -0.10582636 -0.119349815
-0.09856904 -0.097515106 -0.04832125 -0.025317175 -0.23870248 -0.2257242 -0.16581178 -0.2208715
-0.25928783 -0.078246415 -0.13733995 -0.20409368 0.07982005 -0.11632809 -0.17151245 -0.23800851
-0.03762291 -0.119820476 -0.06527731 -0.17520842 -0.17103358 0.01640727 -0.1450324 -0.13296384
-0.2698798 -0.15580963 0.016052295 -0.10738043 -0.0001703336 -0.05960123 -0.23063798 -0.17037632
-0.21955255 -0.1268145 -0.19145755 -0.03642096 -0.18512335 0.010937717 -0.08469149 -0.1811194

lstm.weight_ih_l1 f4 [512, 128]
00000000: f14b 4d3d 6aa3 9dbc c10b d3bd 2622 9fbd
00000010: 11ec 993d 7478 46bd 4244 323d 93ff babc
00000020: 0c1e e5bd b493 c73d 40e7 d8bd fa53 283e
00000030: b9ec de3d 378c 69bd 566b a3bc 2ebe aebd
00000040: 32f4 083e b498 613d 2054 1a3d 0131 9ebe
00000050: 4665 f0bd ea42 c0bc a679 b13d ab2b 8ebd
00000060: 435c 793d b504 41bd d93b 58be 4feb 6d3d
00000070: d60a 883d 62d6 c93d aeff 273c 7a7f 603d
00000080: e68e b7be f277 283d 844e ccbd a22a b23c
00000090: 8260 61bd fe36 19be c274 493e a8f2 073d
000000a0: 7fc5 e53d 6437 eb3d 1729 48bd d325 12ba
000000b0: 2713 243d ad1d fabd e6e2 34bd 6f52 903e
000000c0: 3c60 f3bd 7be4 c4bc 9371 9e3b d866 8ebd
000000d0: 6969 b93d edc4 c13d 6dd1 66be 545b d0bc
000000e0: 5b4b 943d b199 f2bb f4a1 c23c 50a6 8ebd
000000f0: 4022 fe3c 91e6 a5bd eb3f be3c b229 563d
00000100: d787 37bd 5d5d 07be 1041 cd3c df76 243e
00000110: 94e6 1b3c 0f56 013e 8d16 f2bc 2f12 bbbc
00000120: 9471 e53d 7b34 a7bd 44f8 8c3d 00da 9bbd
00000130: 1615 2bbd ab13 003e 1e4f e53d 63ba a4be
00000140: a308 e83d d3da 1a3b ba8b 953d a8a1 1e3e
00000150: a4c6 9c3d 5e25 92bc 7fda 643e 71ab 1cbd
00000160: dda9 38bd 8b7a a7bd bea9 92bb d01d fb3b
00000170: 6596 62bd 5639 81bd 650d 5a3c 2f29 8e3d
00000180: a844 debc a41d c13d d801 9f3c e925 ac3c
00000190: b1d2 2dbe 3633 16bd c526 1a3d 6f1b f0bb
000001a0: f6d9 223a bbcd 94bd bec1 88bd 06e1 8fbc
000001b0: 66b8 aebd b17f 4cbc aa0e 81bd ff4d 173e
000001c0: e704 23bc 0166 b93c 64e0 793d 8713 4f3e
000001d0: 1c32 1cbe 6129 64bd 3145 0c3d 4066 0fbd
000001e0: 2368 b5bd 7b71 8cbc 5cf4 7cbc f71d f8bc
000001f0: 52ed 31bc 6800 a0bd 916d 373e 3844 00be
00000200: f2d1 52be 7f43 173d 651f 4a3e cb81 e23c
00000210: d4fe 42be 9239 e23d 8fe8 acbd c3d9 2b3d
00000220: b9d5 a7bd 3831 903d 3d45 133e f9cf 86bd
00000230: 8092 95ba 5a0c f93d 8b57 b93c 6884 56be
00000240: 35ba d33c b12e bd3d 5c40 1d3e 30d4 2b3d
00000250: 76ab 85be 56d1 99be 0596 88be 181a 5ebc
00000260: 2f84 30be 552b 03be 949e 2ebd e0a4 0ebd
00000270: 26cf 343e d356 fb3b 504d 14be 6d10 093e
00000280: 7328 85be f161 053c 07e0 003c 5070 933e
00000290: 16f7 1b3c cd03 16bd f94f b13d 5a0f 6d3d
000002a0: 5876 6e3d a68e 9d3e 4581 e73d fa77 f03d
000002b0: 1349 a1bc adf6 a93d a9b9 fc3d d6dc 2e3d
000002c0: 027e 11be 1a62 153e a60b 3cbd de59 ab3d
000002d0: e3cb f8bd 87a0 10be e953 10be 5577 fa3b
000002e0: ab21 a53d 4d67 b53d bbad fd3d 48b0 44be
000002f0: b645 88be 2897 dc3d bcf3 543d bae9 6b3e
00000300: 978a 30bd 4072 ff3d de64 b63c 78bf a13b
00000310: e44e 68be a190 443e c0f2 e0bd 9e20 dfbd
00000320: 6fb3 0bbe 3df7 f53d 8f3f 743e 7af0 fa3c
00000330: bf27 57bb 4525 0bbe 0c53 573e 1927 94be
00000340: 2dbf 4fbe f260 c33c 37bb b23d a800 4a3e
00000350: 6471 3dbe 35da b33c 588c 763c 627b e03d
00000360: c92a 08bd 74e5 8b3c 2535 56be 1a58 8bbd
00000370: 11eb 003d 3bcc 76be aada f3bd 3e3d f3bd
00000380: 8c2c 37be e5cd ca3d f66c f3bc 0bc1 f2bd
00000390: 8f87 60be df5a 483e dca2 773d c5f5 c53d
000003a0: 4be3 3e3e 5a00 e3bd 974f 80be 68f1 823d
000003b0: 5c54 133e 6e01 283e 826c 003e c6ba 783e
000003c0: a2f2 183d 870b 6a3e 37fb ebbd 8440 8a3e
000003d0: d19c 99bb 987b 64be a3cf 6b3e cbdc bbbb
000003e0: 4e8c 20be 9a2e e03c 08fe 91bb c07f 60be
000003f0: 5aec 093d 0115 ee3d 594e c73d a65d 5d3d
0.05012125 -0.019242961 -0.10304976 -0.07770185 0.07515729 -0.048454717 0.043522127 -0.022826945
-0.111873716 0.09744969 -0.105909824 0.16438285 0.10884995 -0.057018485 -0.019948643 -0.08532368
0.13374403 0.05507727 0.037677884 -0.30896762 -0.117380664 -0.023469407 0.08665781 -0.06941923
0.060879003 -0.04712363 -0.2111658 0.058085736 0.06642692 0.098553434 0.01025383 0.05480907
-0.3585121 0.041130014 -0.09975913 0.021748845 -0.055023678 -0.14962384 0.19673446 0.0331904
0.1121931 0.11485174 -0.04886731 -0.0005575094 0.040057328 -0.122126915 -0.0441617 0.28187892
-0.118835896 -0.02403473 0.0048353164 -0.0695321 0.090533085 0.09461389 -0.22540827 -0.025434174
0.072409354 -0.0074035753 0.023758866 -0.06965315 0.031022191 -0.08100618 0.023223838 0.052285857
-0.04480728 -0.13219209 0.025055438 0.1606097 0.009515423 0.12630485 -0.029551769 -0.022835819
0.11203304 -0.08164307 0.068832904 -0.076099396 -0.041768156 0.12507503 0.11196731 -0.32173452
0.11329772 0.0023628965 0.07302041 0.15491354 0.07655075 -0.017840084 0.22348975 -0.038249437
-0.04508387 -0.0817767 -0.0044758013 0.007663466 -0.05531921 -0.06309764 0.013308858 0.06941449
-0.027132347 0.094294816 0.019410059 0.02101417 -0.16974904 -0.036669932 0.03763463 -0.007327489
0.0006212288 -0.072658025 -0.066775784 -0.017563354 -0.08531265 -0.012481616 -0.06301625 0.14775847
-0.009949899 0.022631647 0.06100501 0.20222293 -0.1525349 -0.055703525 0.034245674 -0.035009623
-0.08857753 -0.017143955 -0.015439119 -0.030287726 -0.010859804 -0.078125775 0.1791289 -0.12526023
-0.205879 0.036929604 0.19738539 0.02764978 -0.19042522 0.11046137 -0.084427945 0.04195572
-0.08195061 0.07040638 0.14381881 -0.065826364 -0.0011411458 0.12160559 0.022624752 -0.20948946
0.025845626 0.09237421 0.15356582 0.041950405 -0.26107377 -0.30042523 -0.26676956 -0.013556026
-0.17237924 -0.12809499 -0.0426317 -0.034825206 0.17657146 0.0076702624 -0.14482617 0.13385172
-0.26007423 0.008141027 0.007865912 0.28796625 0.009519359 -0.03662472 0.08657832 0.05787597
0.05821833 0.30772895 0.11303953 0.11741634 -0.019688165 0.08299003 0.12340099 0.042691074
-0.14208224 0.14588204 -0.045909546 0.0836675 -0.12148263 -0.14123736 -0.14094509 0.00764362
0.08063062 0.08857594 0.12386652 -0.19207871 -0.26615685 0.10771018 0.051990256 0.23038378
-0.04310092 0.12472963 0.022264894 0.004936155 -0.22686344 0.19195797 -0.10983801 -0.10894893
-0.13642667 0.120100476 0.2385237 0.030632246 -0.0032830087 -0.13588436 0.21027774 -0.2893608
-0.20287772 0.023849938 0.08727115 0.19726813 -0.18500286 0.021954635 0.015048109 0.109610334
-0.033243928 0.017077185 -0.2091871 -0.068039134 0.031474177 -0.24101345 -0.11906941 -0.118769154
-0.17888087 0.099025525 -0.029715043 -0.11853226 -0.21926711 0.19565915 0.06045805 0.096660174
0.18641393 -0.110840514 -0.25060722 0.06393701 0.1438765 0.16406795 0.12541392 0.24289998
0.037340768 0.2285596 -0.11522525 0.27002347 -0.0046878834 -0.22312772 0.23028426 -0.0057331077
-0.15678522 0.027365971 -0.0044553317 -0.21923733 0.033672668 0.116251 0.097317405 0.05404439

lstm.weight_hh_l1 f4 [512, 128]
00000000: 7b92 563b 5bb4 15be d959 c53c 37df a33d
00000010: 5413 fb3d ee09 cdbd c0b7 afbd 10fb 37bd
00000020: 5263 b63c fd0e d53d 10b4 05be 8189 c03d
00000030: 4203 a63d 16b1 8f3d 0912 85bd 8184 b83d
00000040: 44d3 c8bd 609a 283d 3087 06be 0f04 fdbd
00000050: c032 86bd ba0e c93d d20b 053e 7063 cebd
00000060: 363c 13bd c6e6 c5bd 927f dfbb 6f65 e93c
00000070: 5b98 0bbd 4912 be3d b1f4 fdbc 655f 203e
00000080: ee20 a23d ae3e 4b3d 22b0 24be 1e86 88bd
00000090: adaa f13d 75ce debc 12d5 933d a6d7 d4bd
000000a0: 656f 1a3c 9b79 9c3c a73c d33d 21b0 82bc
000000b0: b8ed 603e 5e8f 343d eb5c 3dbd 95cc 07be
000000c0: a9c9 5c3c 668c 3b3d 88c5 d0bd 7bbe b6bc
000000d0: 4fa3 54bd ce1f f93d 8c47 06bd 6a2b c93d
000000e0: 6f80 a53e 3b4f 4dbc 0942 ccbd f285 cf3c
000000f0: 451a 28be 0d6e 6cbd 105d 38be f09f bdbd
00000100: e863 c03d 8c0d cabd f3fb 9a3d 82ec 473e
00000110: bfb0 b3bd 7ef1 dcbd ca95 853d 754a 423d
00000120: e45e b53d 27b3 4abd e7be aebc b458 42bd
00000130: 722a e43d a35f c43d fdf7 a8bd 7e1d c5bd
00000140: 8887 433d 211b 033c eebb 903d 59a1 b9bd
00000150: e624 0ebe fdc2 993e 7356 08be ffef c73d
00000160: 6596 2fbd b75a e9be 1bb7 9abd 2001 183e
00000170: 349e 58bc fc67 0fbd 7539 ca3c 9e21 c53d
00000180: c8db 423b 2f43 943c eb3b b33d b75a 6bbc
00000190: 0046 c8bc ad79 933c 7170 a8bd ee31 dc3c
000001a0: bcc0 cabd 415c d43b 9c41 dbbc 2168 ed3d
000001b0: 147c d13c b2a4 dfbd 37c2 40bd 1ea5 283e
000001c0: 236f 163d 27e0 b63c 75ae aebd f171 e33d
000001d0: e35b 093e 87aa 98bc 2f97 7cbd 54d3 383d
000001e0: c82b 4dbe cc5a 373e 4a33 07be 9740 203d
000001f0: 1cdb c23d f712 f2bc ee49 af3d 2270 e0bd
00000200: 4612 603d 9678 55bb 616e b13d 56b2 6fbd
00000210: 7384 813d 47a0 f7bc f520 353d 101d 2c3e
00000220: 5933 363d 579e 4d3d a709 c0bd 8be8 02be
00000230: c7f6 643d a6dd c73d 0948 ff3d 6b05 a7bd
00000240: 25dc 5fbd 30cb 233e 7df8 0bbd f3d0 09bd
00000250: 3f29 04be cf0c 45bd 27a0 afbd d417 cbbd
00000260: 1af6 5c3e e023 4abd a525 cd3d 9f6f 9fbd
00000270: 98b6 143e 2c0b 58bd 6c7b 033e 1541 863b
00000280: 26b6 973d 250a afbb 4a70 0ebd 46de 953d
00000290: ad7e 9b3e a401 94bd 6c82 7fbd f6bf 043d
000002a0: f35a 5bbe 3c87 58bc e6f1 1a3d 40ee 0b3d
000002b0: c5a6 d8bd 0f3b 2ebd bd6f 683e 5af8 45bd
000002c0: 2b40 bfbd 951c 97bd 77d8 493c 20a3 c63b
000002d0: 7c8b 3f3d 2afd db3d 30fb 43bd 65c5 10bd
000002e0: d042 7c3d b4d5 213c 6bef fdbd 7fcc 75bc
000002f0: 0bc3 fcbc 2dda 04be dd9d 95bd 6c5f e73b
00000300: eb0c aa3c da0a 0f3d b0e3 d63d 0137 57bd
00000310: b742 1abd 9531 8abc 1cc1 c53c 0353 5dbd
00000320: e9c0 df3c 1c37 d93c 964c b5bd 540a 2ebd
00000330: b4cb c6bd 1f8f 083e e25b aebd f9f7 0d3e
00000340: c9d1 343e c283 86bc b0dc 843d dc73 da3d
00000350: 8284 c83c 153c 353e 3810 243c ca95 5fbd
00000360: 5632 d239 a243 2bbf 23fd 4b3d bf87 07be
00000370: 4f67 7b3c bba2 cfbd 7997 bdbd ae95 a03c
00000380: c114 a13b bba9 a4bd 3ac0 56bc 8ecc 52bd
00000390: 544a ef3c 9da9 1ebc 3b56 da3c 1227 92bc
000003a0: 2936 26bd e78a 8abd dd5b 68bb dbd2 dabd
000003b0: 425b 6fbd 4cc0 34bd 13b0 933c d1a6 0abe
000003c0: b376 83bc f48f 873c 1086 06bc c360 c73c
000003d0: 6861 e13d 27bf 6fbc 2fa0 5bbd b0cc a13c
000003e0: 0db2 81be 45d1 23be 5b11 89bd af95 60be
000003f0: 5dcc 8abb e683 0d3d e665 0bbe 438b bebd
0.0032741118 -0.14619581 0.024090694 0.08001559 0.12259546 -0.100116596 -0.085799694 -0.044917166
0.022264156 0.104032494 -0.1305697 0.09401227 0.0810609 0.07016198 -0.064975806 0.09009648
-0.09805921 0.04116285 -0.13137507 -0.1235429 -0.065526485 0.09817262 0.1299279 -0.1007756
-0.035946093 -0.09663157 -0.0068206275 0.02849075 -0.034080844 0.09280831 -0.031000467 0.1566139
0.07916437 0.049620323 -0.16082814 -0.06666206 0.11800132 -0.027198056 0.07218374 -0.10392694
0.009425973 0.019100955 0.10314303 -0.015953125 0.21965683 0.044082038 -0.04623119 -0.13261636
0.013475814 0.04578819 -0.10193926 -0.022307625 -0.051913556 0.121642694 -0.032783076 0.09822734
0.3232455 -0.012531097 -0.09973533 0.025332425 -0.16416271 -0.05772214 -0.1800425 -0.09259021
0.093940556 -0.09865865 0.07567587 0.19523814 -0.08773946 -0.107882485 0.065227106 0.04743429
0.088559896 -0.04948726 -0.021331264 -0.047447875 0.11140908 0.09588554 -0.08250425 -0.09624766
0.047736675 0.0080020735 0.07067095 -0.09063978 -0.13881263 0.30031577 -0.13314228 0.097625725
-0.042868037 -0.45577022 -0.07554456 0.14844179 -0.013221312 -0.035011277 0.0246856 0.096255526
0.002973305 0.018098442 0.08751663 -0.01436489 -0.024447441 0.018002355 -0.082245715 0.026879277
-0.099000424 0.006480724 -0.026764683 0.11592127 0.02557186 -0.10920085 -0.047060218 0.16469237
0.036727082 0.022323681 -0.08529369 0.11105717 0.13413958 -0.018636001 -0.061667617 0.045123413
-0.20036232 0.1790573 -0.13203159 0.039124098 0.09514448 -0.029550059 0.08559023 -0.10958888
0.054704927 -0.0032573096 0.08663631 -0.058519684 0.06324091 -0.030227793 0.044220883 0.16807961
0.044482563 0.050199833 -0.09376841 -0.1278402 0.055899408 0.09759073 0.124649115 -0.0815533
-0.054653306 0.15995479 -0.034172524 -0.033646535 -0.12906359 -0.04810792 -0.085754685 -0.09916654
0.21578255 -0.04935062 0.10016946 -0.07784962 0.14522779 -0.05274503 0.1284005 0.004097114
0.07407789 -0.0053417855 -0.034775056 0.07317786 0.30370083 -0.072268754 -0.06238024 0.03240963
-0.21421413 -0.013215836 0.03782835 0.03416276 -0.10578684 -0.04253679 0.22698875 -0.04833255
-0.09338411 -0.073784985 0.012319676 0.0060619265 0.046763882 0.107416466 -0.047846973 -0.0353445
0.061587155 0.009877611 -0.12399181 -0.015002369 -0.030854722 -0.12973852 -0.07305501 0.0070609357
0.020758113 0.03492246 0.10492647 -0.05254269 -0.03766128 -0.016869346 0.024139933 -0.054034244
0.027313666 0.026515536 -0.08852498 -0.04249032 -0.09706822 0.13335846 -0.08513619 0.13864125
0.17658152 -0.016420249 0.06487405 0.1066663 0.024477247 0.176987 0.0100136325 -0.05458621
0.00040091824 -0.66900074 0.049801957 -0.13235377 0.015344455 -0.1013846 -0.09257407 0.019602623
0.004915804 -0.08040186 -0.013107354 -0.05146461 0.029210247 -0.009683994 0.026652446 -0.017840896
-0.040578995 -0.06764775 -0.0035455145 -0.10684749 -0.05843664 -0.0441287 0.018028295 -0.13540198
-0.016047811 0.016548134 -0.008210674 0.024338132 0.11004907 -0.014632977 -0.05361956 0.019750923
-0.25331154 -0.15997799 -0.066927634 -0.219321 -0.004235788 0.034549616 -0.1361309 -0.09303906

lstm.bias_ih_l1 f4 [512]
00000000: a034 d0be c341 5cbe bff6 6dbe 21e0 a8be
00000010: e927 64be 9d16 67be d6d5 a3bd bd09 52be
00000020: ef16 7abe f02c 56be 4151 95be 2ade 5cbe
00000030: 7a00 f1bd b510 d83c f229 67be fc72 60be
00000040: cf7b 7bbd 8ed6 b9bd 9439 ccbd 4fad 82be
00000050: 8782 4ebe 07ef 38be c6a3 fabd 86f5 f9bd
00000060: f115 5ebe db82 4abe 8fd7 30bd f61f f5bd
00000070: 862e 76bd 0e58 89be beb9 4bbe 71bc 68be
00000080: 2f4e 6bbe b9d3 a3be eaf5 87bd 8186 79be
00000090: dac2 abbd b9f8 a4bd e6e6 c2bd 68b0 fbbc
000000a0: 9837 acbe 995e 82be 73b0 a5bd 254e 20be
000000b0: 966c 76bd c421 01be 6688 b0bd e09e 3dbe
000000c0: 678a 4dbe 8fa9 4abe e4b7 98be c8df 79be
000000d0: 5e09 59be a102 4ebe 81d6 30be 4a0b 75be
000000e0: f79a 41be b945 bebd 0ee6 0ebe 6827 42be
000000f0: 52c7 b13d 8129 5cbe 41dd 0b3d 107f 11be
00000100: ec48 a2be 4e3a a4bd 9706 03be d16c 97be
00000110: 01df 24be 69c6 06be 07b6 5dbe f3bb 27bd
00000120: e67d a0be 7bbe 6fbe d157 8cbe e069 c9bd
00000130: d6d9 42be bb50 abbe 8d29 85be 5b09 efbd
00000140: baa0 a1be 97a7 9cbe d738 3fbe 40f3 9abe
00000150: fb73 3cbe 7093 aebd c29b 6dbe 590a c0bd
00000160: 8829 8ebe cc0f 803d 11be 90be fbb7 b8bd
00000170: 1dd7 84be 24b4 14bd e1f4 42be d2bf cfbd
00000180: a216 75be d93f 28be 6583 27be 39e6 84be
00000190: c39b b2bd 508a cabd 0626 9fbe 4abd 84be
000001a0: bf99 98bd 8131 a5be dfcc 253d 3071 20be
000001b0: bcfd 47be 6462 06be a2b1 34be 623b 69be
000001c0: f9da efbe e286 3cbe 2c82 92be 65d6 a3bd
000001d0: 79e7 59be 2609 8fbd 1b82 52be 2ddd 52bd
000001e0: 1f1d 04be fce5 b4be eadc 60bd 6d78 27bd
000001f0: 9469 2abd 5aa5 b5bd c454 1dbe c2e6 e3bd
00000200: 5c71 51be 3389 12bd 6e5e 03be dac8 e9bd
00000210: 7bf6 1bbe 8507 fabc 86dd 92bd 1a3b 5bbe
00000220: 7b29 18bd ba25 91bd 53ef dcbd 4c29 a2bd
00000230: 2ec0 7abe 258c 30be 3bc1 9abe 48de bcbd
00000240: 7c5c 403d 35b8 ac3c 7f63 01bd 3eeb 4dbe
00000250: 15f6 d0bd 307e 80be ba39 56be aac0 f1bd
00000260: 3c04 42be 9f3c cebd 8612 f63d 9c08 ec3c
00000270: 9f83 d13d c9ad 3ebe 0a8e b3bd 932e b1be
00000280: 05b9 27bd 39b9 bb3d 89ce 21be f7e0 95be
00000290: 74fa 903d 359d 703c 418b 073c 9445 cfbc
000002a0: 361f 02be 36fe b43c c585 ff3c cf2c 3d3d
000002b0: f7a4 15be 35b4 68be 6ba2 73be b97a 94bc
000002c0: 3233 48bd 2680 e1bd b236 ea3d 9fe3 dcbd
000002d0: bf49 2ebe 0490 0abe 7fdb ceba d786 66be
000002e0: 219c 58be 7bcf a8bd d255 6e3d 74a1 1dbe
000002f0: fc64 a53e af19 e9bc 4aa5 8d3e f3d8 613c
00000300: 4195 3cbd 8d52 ddb9 079e 51be 3d9f d7bd
00000310: a479 943d 5538 a6bd ab77 ebbd 92cd 80bd
00000320: 173d 75bd 2025 98bd f5e5 17bd 17f6 0cbc
00000330: dafd f93b 0a2f 6bbe ed3b a83c b002 dbbd
00000340: 577c a1be 0d1d 0dbe a7d7 ccbd 935b fdbc
00000350: 86dc 85bd 738a 6b3e 43ad 83bc 27df b7bd
00000360: 13c4 a3bc a38b 063d d8ef 32be c5c3 c73d
00000370: f886 a3bd a637 d33d 187a 2ebe 0705 4bbd
00000380: 5d9c 74bd 9022 78bd 89e5 f4bd 437b c6bd
00000390: 21da 21be a86d 96be 382c bcbe a6d3 e6bc
000003a0: fe76 b1bd 7b70 0dbe cbf3 aa3d 38ec b93d
000003b0: a9eb 8ebe 0f33 2cbe d21e 81be e44a 9bba
000003c0: 329e 8abe 1a44 5fbe eb9c 82be 84d3 11bd
000003d0: 94ef dbbd 0853 b5bd 391d 44bd c62d e9bc
000003e0: 8e53 d1bd 273d 40be db42 3f3c 70ba 1bbb
000003f0: b5df 903d 5faf 06be cccf 333d a955 28bd
-0.4066515 -0.21509461 -0.23238657 -0.32983497 -0.2228085 -0.2256722 -0.0799977 -0.20511527
-0.24422811 -0.2091558 -0.29163554 -0.21569124 -0.11767669 0.026375154 -0.22574595 -0.21918863
-0.06139737 -0.09074126 -0.0997192 -0.2552285 -0.2016698 -0.18059932 -0.122382686 -0.12205033
-0.21688057 -0.1977648 -0.043174323 -0.11968987 -0.060102962 -0.26824993 -0.19895074 -0.22728135
-0.22979043 -0.3199747 -0.06638701 -0.24367715 -0.08386774 -0.080552526 -0.09516697 -0.030723765
-0.33636165 -0.25462797 -0.08090296 -0.1565481 -0.06016215 -0.12610537 -0.08619766 -0.18517637
-0.20072328 -0.19791244 -0.29827797 -0.24401772 -0.2119498 -0.2011819 -0.17269327 -0.23930088
-0.1890677 -0.09290642 -0.13954946 -0.18960345 0.086805955 -0.21500207 0.03414655 -0.14208627
-0.3169626 -0.08018933 -0.12795483 -0.29575208 -0.16100694 -0.13161625 -0.21651469 -0.040950727
-0.31346053 -0.23412506 -0.2741075 -0.09834647 -0.1902841 -0.3346003 -0.26008263 -0.11671706
-0.31567937 -0.3059661 -0.18674026 -0.3026371 -0.18403618 -0.08524215 -0.23203948 -0.09376974
-0.2776606 0.06253013 -0.2827001 -0.090194665 -0.25945368 -0.036304608 -0.19038726 -0.10144009
-0.23934415 -0.16430606 -0.16358717 -0.25956896 -0.087211154 -0.09889662 -0.31083697 -0.25925666
-0.074512 -0.3226433 0.040478583 -0.15668178 -0.19530386 -0.1312347 -0.17645887 -0.22776559
-0.4684675 -0.18410829 -0.28614938 -0.07999877 -0.21279706 -0.06984167 -0.20557444 -0.05148046
-0.12901734 -0.35331714 -0.05489818 -0.04088633 -0.041604593 -0.08869429 -0.15364367 -0.11127998
-0.204534 -0.035775375 -0.12828991 -0.114152625 -0.15230744 -0.030521164 -0.071711585 -0.21409264
-0.037148934 -0.07087274 -0.10787835 -0.07918033 -0.24487373 -0.17240961 -0.30225548 -0.09222084
0.0469632 0.02108393 -0.031589027 -0.20109269 -0.102031864 -0.25096273 -0.20920458 -0.11804326
-0.18946928 -0.10070156 0.12015252 0.028812699 0.10230183 -0.18620981 -0.08767326 -0.34605846
-0.040947933 0.09166188 -0.15801443 -0.29273197 0.0707902 0.014685919 0.008272947 -0.025301732
-0.12707219 0.022093873 0.031191716 0.04618531 -0.1461371 -0.22724994 -0.23792426 -0.018124925
-0.04887695 -0.110107705 0.114362136 -0.10785603 -0.1702032 -0.135315 -0.0015781968 -0.22512375
-0.21153308 -0.08242699 0.058187313 -0.1539362 0.32303607 -0.02845463 0.27665168 0.013784635
-0.046040777 -0.0004221391 -0.20470439 -0.10528419 0.072497636 -0.08116213 -0.11497434 -0.062892094
-0.059872713 -0.07428956 -0.03708454 -0.008603594 0.0076291384 -0.22967163 0.020536387 -0.10693872
-0.31540176 -0.13780613 -0.1000207 -0.030927455 -0.06536202 0.23002033 -0.016073829 -0.0897811
-0.019990956 0.03284801 -0.17474306 0.09754137 -0.079847276 0.103133485 -0.17038763 -0.04956534
-0.059719432 -0.060579836 -0.11957843 -0.09691479 -0.15805866 -0.29380536 -0.36752486 -0.028177094
-0.08665274 -0.13812439 0.08347281 0.09078258 -0.2791417 -0.16816352 -0.25218827 -0.0011847881
-0.27073818 -0.21803322 -0.25510344 -0.035602108 -0.10739055 -0.088537276 -0.04787943 -0.02846421
-0.10221015 -0.18773328 0.011673654 -0.0023762248 0.07073919 -0.13152836 0.043899342 -0.041097317
